…
**[TEST] Loss 1.4959 (1.6668)	 Acc: 56.034 (54.600)	


==========================================================
#                                                          #
#                  Test acc : 54.6000                  #
#                                                          #
==========================================================

=====================================================================================
                                    Kernel Shape     Output Shape   Params  \
Layer                                                                        
0_conv1                            [3, 16, 3, 3]  [1, 16, 32, 32]    432.0   
1_bn1                                       [16]  [1, 16, 32, 32]     32.0   
2_layer1.0.Conv2d_conv1           [16, 16, 3, 3]  [1, 16, 32, 32]   2.304k   
3_layer1.0.BatchNorm2d_bn1                  [16]  [1, 16, 32, 32]     32.0   
4_layer1.0.Conv2d_conv2           [16, 16, 3, 3]  [1, 16, 32, 32]   2.304k   
5_layer1.0.BatchNorm2d_bn2                  [16]  [1, 16, 32, 32]     32.0   
6_layer1.0.Sequential_shortcut                 -  [1, 16, 32, 32]        -   
7_layer1.1.Conv2d_conv1           [16, 16, 3, 3]  [1, 16, 32, 32]   2.304k   
8_layer1.1.BatchNorm2d_bn1                  [16]  [1, 16, 32, 32]     32.0   
9_layer1.1.Conv2d_conv2           [16, 16, 3, 3]  [1, 16, 32, 32]   2.304k   
10_layer1.1.BatchNorm2d_bn2                 [16]  [1, 16, 32, 32]     32.0   
11_layer1.1.Sequential_shortcut                -  [1, 16, 32, 32]        -   
12_layer1.2.Conv2d_conv1          [16, 16, 3, 3]  [1, 16, 32, 32]   2.304k   
13_layer1.2.BatchNorm2d_bn1                 [16]  [1, 16, 32, 32]     32.0   
14_layer1.2.Conv2d_conv2          [16, 16, 3, 3]  [1, 16, 32, 32]   2.304k   
15_layer1.2.BatchNorm2d_bn2                 [16]  [1, 16, 32, 32]     32.0   
16_layer1.2.Sequential_shortcut                -  [1, 16, 32, 32]        -   
17_layer2.0.Conv2d_conv1          [16, 32, 3, 3]  [1, 32, 16, 16]   4.608k   
18_layer2.0.BatchNorm2d_bn1                 [32]  [1, 32, 16, 16]     64.0   
19_layer2.0.Conv2d_conv2          [32, 32, 3, 3]  [1, 32, 16, 16]   9.216k   
20_layer2.0.BatchNorm2d_bn2                 [32]  [1, 32, 16, 16]     64.0   
21_layer2.0.LambdaLayer_shortcut               -  [1, 32, 16, 16]        -   
22_layer2.1.Conv2d_conv1          [32, 32, 3, 3]  [1, 32, 16, 16]   9.216k   
23_layer2.1.BatchNorm2d_bn1                 [32]  [1, 32, 16, 16]     64.0   
24_layer2.1.Conv2d_conv2          [32, 32, 3, 3]  [1, 32, 16, 16]   9.216k   
25_layer2.1.BatchNorm2d_bn2                 [32]  [1, 32, 16, 16]     64.0   
26_layer2.1.Sequential_shortcut                -  [1, 32, 16, 16]        -   
27_layer2.2.Conv2d_conv1          [32, 32, 3, 3]  [1, 32, 16, 16]   9.216k   
28_layer2.2.BatchNorm2d_bn1                 [32]  [1, 32, 16, 16]     64.0   
29_layer2.2.Conv2d_conv2          [32, 32, 3, 3]  [1, 32, 16, 16]   9.216k   
30_layer2.2.BatchNorm2d_bn2                 [32]  [1, 32, 16, 16]     64.0   
31_layer2.2.Sequential_shortcut                -  [1, 32, 16, 16]        -   
32_layer3.0.Conv2d_conv1          [32, 64, 3, 3]    [1, 64, 8, 8]  18.432k   
33_layer3.0.BatchNorm2d_bn1                 [64]    [1, 64, 8, 8]    128.0   
34_layer3.0.Conv2d_conv2          [64, 64, 3, 3]    [1, 64, 8, 8]  36.864k   
35_layer3.0.BatchNorm2d_bn2                 [64]    [1, 64, 8, 8]    128.0   
36_layer3.0.LambdaLayer_shortcut               -    [1, 64, 8, 8]        -   
37_layer3.1.Conv2d_conv1          [64, 64, 3, 3]    [1, 64, 8, 8]  36.864k   
38_layer3.1.BatchNorm2d_bn1                 [64]    [1, 64, 8, 8]    128.0   
39_layer3.1.Conv2d_conv2          [64, 64, 3, 3]    [1, 64, 8, 8]  36.864k   
40_layer3.1.BatchNorm2d_bn2                 [64]    [1, 64, 8, 8]    128.0   
41_layer3.1.Sequential_shortcut                -    [1, 64, 8, 8]        -   
42_layer3.2.Conv2d_conv1          [64, 64, 3, 3]    [1, 64, 8, 8]  36.864k   
43_layer3.2.BatchNorm2d_bn1                 [64]    [1, 64, 8, 8]    128.0   
44_layer3.2.Conv2d_conv2          [64, 64, 3, 3]    [1, 64, 8, 8]  36.864k   
45_layer3.2.BatchNorm2d_bn2                 [64]    [1, 64, 8, 8]    128.0   
46_layer3.2.Sequential_shortcut                -    [1, 64, 8, 8]        -   
47_linear                              [64, 100]         [1, 100]     6.5k   

                                  Mult-Adds  
Layer                                        
0_conv1                            442.368k  
1_bn1                                  16.0  
2_layer1.0.Conv2d_conv1           2.359296M  
3_layer1.0.BatchNorm2d_bn1             16.0  
4_layer1.0.Conv2d_conv2           2.359296M  
5_layer1.0.BatchNorm2d_bn2             16.0  
6_layer1.0.Sequential_shortcut            -  
…
[[], [], [[3, 5, 7, 14]], [[1, 3, 12, 14]], [[6, 10, 11, 13]], [[7, 9, 10, 11, 17, 18, 20, 21, 31]], [[1, 3, 6, 8, 10, 12, 17, 20, 31]], [[0, 2, 5, 8, 16, 18, 25, 27, 31]], [[6, 8, 13, 15, 25, 32, 33, 34, 37, 41, 42, 43, 45, 46, 47, 55, 58, 60, 62]], [[0, 2, 4, 5, 6, 9, 12, 16, 17, 19, 27, 32, 33, 42, 47, 48, 56, 61, 63]], [[1, 2, 4, 5, 7, 9, 12, 26, 27, 30, 35, 36, 37, 41, 42, 48, 49, 51, 60]], []]
=====================================================================================
                                    Kernel Shape     Output Shape   Params  \
Layer                                                                        
0_conv1                            [3, 16, 3, 3]  [1, 16, 32, 32]    432.0   
1_bn1                                       [16]  [1, 16, 32, 32]     32.0   
2_layer1.0.Conv2d_conv1            [16, 4, 3, 3]   [1, 4, 32, 32]    576.0   
3_layer1.0.BatchNorm2d_bn1                   [4]   [1, 4, 32, 32]      8.0   
4_layer1.0.Conv2d_conv2            [4, 16, 3, 3]  [1, 16, 32, 32]    576.0   
5_layer1.0.BatchNorm2d_bn2                  [16]  [1, 16, 32, 32]     32.0   
6_layer1.0.Sequential_shortcut                 -  [1, 16, 32, 32]        -   
7_layer1.1.Conv2d_conv1            [16, 4, 3, 3]   [1, 4, 32, 32]    576.0   
8_layer1.1.BatchNorm2d_bn1                   [4]   [1, 4, 32, 32]      8.0   
9_layer1.1.Conv2d_conv2            [4, 16, 3, 3]  [1, 16, 32, 32]    576.0   
10_layer1.1.BatchNorm2d_bn2                 [16]  [1, 16, 32, 32]     32.0   
11_layer1.1.Sequential_shortcut                -  [1, 16, 32, 32]        -   
12_layer1.2.Conv2d_conv1           [16, 4, 3, 3]   [1, 4, 32, 32]    576.0   
13_layer1.2.BatchNorm2d_bn1                  [4]   [1, 4, 32, 32]      8.0   
14_layer1.2.Conv2d_conv2           [4, 16, 3, 3]  [1, 16, 32, 32]    576.0   
15_layer1.2.BatchNorm2d_bn2                 [16]  [1, 16, 32, 32]     32.0   
16_layer1.2.Sequential_shortcut                -  [1, 16, 32, 32]        -   
17_layer2.0.Conv2d_conv1           [16, 9, 3, 3]   [1, 9, 16, 16]   1.296k   
18_layer2.0.BatchNorm2d_bn1                  [9]   [1, 9, 16, 16]     18.0   
19_layer2.0.Conv2d_conv2           [9, 32, 3, 3]  [1, 32, 16, 16]   2.592k   
20_layer2.0.BatchNorm2d_bn2                 [32]  [1, 32, 16, 16]     64.0   
21_layer2.0.LambdaLayer_shortcut               -  [1, 32, 16, 16]        -   
22_layer2.1.Conv2d_conv1           [32, 9, 3, 3]   [1, 9, 16, 16]   2.592k   
23_layer2.1.BatchNorm2d_bn1                  [9]   [1, 9, 16, 16]     18.0   
24_layer2.1.Conv2d_conv2           [9, 32, 3, 3]  [1, 32, 16, 16]   2.592k   
25_layer2.1.BatchNorm2d_bn2                 [32]  [1, 32, 16, 16]     64.0   
26_layer2.1.Sequential_shortcut                -  [1, 32, 16, 16]        -   
27_layer2.2.Conv2d_conv1           [32, 9, 3, 3]   [1, 9, 16, 16]   2.592k   
28_layer2.2.BatchNorm2d_bn1                  [9]   [1, 9, 16, 16]     18.0   
29_layer2.2.Conv2d_conv2           [9, 32, 3, 3]  [1, 32, 16, 16]   2.592k   
30_layer2.2.BatchNorm2d_bn2                 [32]  [1, 32, 16, 16]     64.0   
31_layer2.2.Sequential_shortcut                -  [1, 32, 16, 16]        -   
32_layer3.0.Conv2d_conv1          [32, 19, 3, 3]    [1, 19, 8, 8]   5.472k   
33_layer3.0.BatchNorm2d_bn1                 [19]    [1, 19, 8, 8]     38.0   
34_layer3.0.Conv2d_conv2          [19, 64, 3, 3]    [1, 64, 8, 8]  10.944k   
35_layer3.0.BatchNorm2d_bn2                 [64]    [1, 64, 8, 8]    128.0   
36_layer3.0.LambdaLayer_shortcut               -    [1, 64, 8, 8]        -   
37_layer3.1.Conv2d_conv1          [64, 19, 3, 3]    [1, 19, 8, 8]  10.944k   
38_layer3.1.BatchNorm2d_bn1                 [19]    [1, 19, 8, 8]     38.0   
39_layer3.1.Conv2d_conv2          [19, 64, 3, 3]    [1, 64, 8, 8]  10.944k   
40_layer3.1.BatchNorm2d_bn2                 [64]    [1, 64, 8, 8]    128.0   
41_layer3.1.Sequential_shortcut                -    [1, 64, 8, 8]        -   
42_layer3.2.Conv2d_conv1          [64, 19, 3, 3]    [1, 19, 8, 8]  10.944k   
43_layer3.2.BatchNorm2d_bn1                 [19]    [1, 19, 8, 8]     38.0   
44_layer3.2.Conv2d_conv2          [19, 64, 3, 3]    [1, 64, 8, 8]  10.944k   
45_layer3.2.BatchNorm2d_bn2                 [64]    [1, 64, 8, 8]    128.0   
46_layer3.2.Sequential_shortcut                -    [1, 64, 8, 8]        -   
47_linear                              [64, 100]         [1, 100]     6.5k   

                                 Mult-Adds  
Layer                                       
0_conv1                           442.368k  
1_bn1                                 16.0  
2_layer1.0.Conv2d_conv1           589.824k  
3_layer1.0.BatchNorm2d_bn1             4.0  
4_layer1.0.Conv2d_conv2           589.824k  
5_layer1.0.BatchNorm2d_bn2            16.0  
6_layer1.0.Sequential_shortcut           -  
…
