…
**[TEST] Loss 1.6464 (1.6668)	 Acc: 55.172 (54.600)	


==========================================================
#                                                          #
#                  Test acc : 54.6000                  #
#                                                          #
==========================================================

=====================================================================================
                                    Kernel Shape     Output Shape   Params  \
Layer                                                                        
0_conv1                            [3, 16, 3, 3]  [1, 16, 32, 32]    432.0   
1_bn1                                       [16]  [1, 16, 32, 32]     32.0   
2_layer1.0.Conv2d_conv1           [16, 16, 3, 3]  [1, 16, 32, 32]   2.304k   
3_layer1.0.BatchNorm2d_bn1                  [16]  [1, 16, 32, 32]     32.0   
4_layer1.0.Conv2d_conv2           [16, 16, 3, 3]  [1, 16, 32, 32]   2.304k   
5_layer1.0.BatchNorm2d_bn2                  [16]  [1, 16, 32, 32]     32.0   
6_layer1.0.Sequential_shortcut                 -  [1, 16, 32, 32]        -   
7_layer1.1.Conv2d_conv1           [16, 16, 3, 3]  [1, 16, 32, 32]   2.304k   
8_layer1.1.BatchNorm2d_bn1                  [16]  [1, 16, 32, 32]     32.0   
9_layer1.1.Conv2d_conv2           [16, 16, 3, 3]  [1, 16, 32, 32]   2.304k   
10_layer1.1.BatchNorm2d_bn2                 [16]  [1, 16, 32, 32]     32.0   
11_layer1.1.Sequential_shortcut                -  [1, 16, 32, 32]        -   
12_layer1.2.Conv2d_conv1          [16, 16, 3, 3]  [1, 16, 32, 32]   2.304k   
13_layer1.2.BatchNorm2d_bn1                 [16]  [1, 16, 32, 32]     32.0   
14_layer1.2.Conv2d_conv2          [16, 16, 3, 3]  [1, 16, 32, 32]   2.304k   
15_layer1.2.BatchNorm2d_bn2                 [16]  [1, 16, 32, 32]     32.0   
16_layer1.2.Sequential_shortcut                -  [1, 16, 32, 32]        -   
17_layer2.0.Conv2d_conv1          [16, 32, 3, 3]  [1, 32, 16, 16]   4.608k   
18_layer2.0.BatchNorm2d_bn1                 [32]  [1, 32, 16, 16]     64.0   
19_layer2.0.Conv2d_conv2          [32, 32, 3, 3]  [1, 32, 16, 16]   9.216k   
20_layer2.0.BatchNorm2d_bn2                 [32]  [1, 32, 16, 16]     64.0   
21_layer2.0.LambdaLayer_shortcut               -  [1, 32, 16, 16]        -   
22_layer2.1.Conv2d_conv1          [32, 32, 3, 3]  [1, 32, 16, 16]   9.216k   
23_layer2.1.BatchNorm2d_bn1                 [32]  [1, 32, 16, 16]     64.0   
24_layer2.1.Conv2d_conv2          [32, 32, 3, 3]  [1, 32, 16, 16]   9.216k   
25_layer2.1.BatchNorm2d_bn2                 [32]  [1, 32, 16, 16]     64.0   
26_layer2.1.Sequential_shortcut                -  [1, 32, 16, 16]        -   
27_layer2.2.Conv2d_conv1          [32, 32, 3, 3]  [1, 32, 16, 16]   9.216k   
28_layer2.2.BatchNorm2d_bn1                 [32]  [1, 32, 16, 16]     64.0   
29_layer2.2.Conv2d_conv2          [32, 32, 3, 3]  [1, 32, 16, 16]   9.216k   
30_layer2.2.BatchNorm2d_bn2                 [32]  [1, 32, 16, 16]     64.0   
31_layer2.2.Sequential_shortcut                -  [1, 32, 16, 16]        -   
32_layer3.0.Conv2d_conv1          [32, 64, 3, 3]    [1, 64, 8, 8]  18.432k   
33_layer3.0.BatchNorm2d_bn1                 [64]    [1, 64, 8, 8]    128.0   
34_layer3.0.Conv2d_conv2          [64, 64, 3, 3]    [1, 64, 8, 8]  36.864k   
35_layer3.0.BatchNorm2d_bn2                 [64]    [1, 64, 8, 8]    128.0   
36_layer3.0.LambdaLayer_shortcut               -    [1, 64, 8, 8]        -   
37_layer3.1.Conv2d_conv1          [64, 64, 3, 3]    [1, 64, 8, 8]  36.864k   
38_layer3.1.BatchNorm2d_bn1                 [64]    [1, 64, 8, 8]    128.0   
39_layer3.1.Conv2d_conv2          [64, 64, 3, 3]    [1, 64, 8, 8]  36.864k   
40_layer3.1.BatchNorm2d_bn2                 [64]    [1, 64, 8, 8]    128.0   
41_layer3.1.Sequential_shortcut                -    [1, 64, 8, 8]        -   
42_layer3.2.Conv2d_conv1          [64, 64, 3, 3]    [1, 64, 8, 8]  36.864k   
43_layer3.2.BatchNorm2d_bn1                 [64]    [1, 64, 8, 8]    128.0   
44_layer3.2.Conv2d_conv2          [64, 64, 3, 3]    [1, 64, 8, 8]  36.864k   
45_layer3.2.BatchNorm2d_bn2                 [64]    [1, 64, 8, 8]    128.0   
46_layer3.2.Sequential_shortcut                -    [1, 64, 8, 8]        -   
47_linear                              [64, 100]         [1, 100]     6.5k   

                                  Mult-Adds  
Layer                                        
0_conv1                            442.368k  
1_bn1                                  16.0  
2_layer1.0.Conv2d_conv1           2.359296M  
3_layer1.0.BatchNorm2d_bn1             16.0  
4_layer1.0.Conv2d_conv2           2.359296M  
5_layer1.0.BatchNorm2d_bn2             16.0  
6_layer1.0.Sequential_shortcut            -  
…
38, 39, 41, 42, 43, 45, 46, 47, 53, 55, 56, 58, 60, 62, 63]], [[0, 2, 4, 5, 6, 9, 12, 13, 14, 15, 16, 17, 18, 19, 21, 22, 32, 33, 34, 35, 37, 40, 42, 46, 47, 48, 50, 51, 56, 61, 63]], [[1, 2, 3, 4, 5, 7, 8, 9, 12, 14, 18, 19, 26, 27, 28, 29, 32, 35, 36, 37, 38, 41, 43, 44, 45, 48, 49, 51, 54, 58, 60]], []]
=====================================================================================
                                    Kernel Shape     Output Shape   Params  \
Layer                                                                        
0_conv1                            [3, 16, 3, 3]  [1, 16, 32, 32]    432.0   
1_bn1                                       [16]  [1, 16, 32, 32]     32.0   
2_layer1.0.Conv2d_conv1            [16, 7, 3, 3]   [1, 7, 32, 32]   1.008k   
3_layer1.0.BatchNorm2d_bn1                   [7]   [1, 7, 32, 32]     14.0   
4_layer1.0.Conv2d_conv2            [7, 16, 3, 3]  [1, 16, 32, 32]   1.008k   
5_layer1.0.BatchNorm2d_bn2                  [16]  [1, 16, 32, 32]     32.0   
6_layer1.0.Sequential_shortcut                 -  [1, 16, 32, 32]        -   
7_layer1.1.Conv2d_conv1            [16, 7, 3, 3]   [1, 7, 32, 32]   1.008k   
8_layer1.1.BatchNorm2d_bn1                   [7]   [1, 7, 32, 32]     14.0   
9_layer1.1.Conv2d_conv2            [7, 16, 3, 3]  [1, 16, 32, 32]   1.008k   
10_layer1.1.BatchNorm2d_bn2                 [16]  [1, 16, 32, 32]     32.0   
11_layer1.1.Sequential_shortcut                -  [1, 16, 32, 32]        -   
12_layer1.2.Conv2d_conv1           [16, 7, 3, 3]   [1, 7, 32, 32]   1.008k   
13_layer1.2.BatchNorm2d_bn1                  [7]   [1, 7, 32, 32]     14.0   
14_layer1.2.Conv2d_conv2           [7, 16, 3, 3]  [1, 16, 32, 32]   1.008k   
15_layer1.2.BatchNorm2d_bn2                 [16]  [1, 16, 32, 32]     32.0   
16_layer1.2.Sequential_shortcut                -  [1, 16, 32, 32]        -   
17_layer2.0.Conv2d_conv1          [16, 15, 3, 3]  [1, 15, 16, 16]    2.16k   
18_layer2.0.BatchNorm2d_bn1                 [15]  [1, 15, 16, 16]     30.0   
19_layer2.0.Conv2d_conv2          [15, 32, 3, 3]  [1, 32, 16, 16]    4.32k   
20_layer2.0.BatchNorm2d_bn2                 [32]  [1, 32, 16, 16]     64.0   
21_layer2.0.LambdaLayer_shortcut               -  [1, 32, 16, 16]        -   
22_layer2.1.Conv2d_conv1          [32, 15, 3, 3]  [1, 15, 16, 16]    4.32k   
23_layer2.1.BatchNorm2d_bn1                 [15]  [1, 15, 16, 16]     30.0   
24_layer2.1.Conv2d_conv2          [15, 32, 3, 3]  [1, 32, 16, 16]    4.32k   
25_layer2.1.BatchNorm2d_bn2                 [32]  [1, 32, 16, 16]     64.0   
26_layer2.1.Sequential_shortcut                -  [1, 32, 16, 16]        -   
27_layer2.2.Conv2d_conv1          [32, 15, 3, 3]  [1, 15, 16, 16]    4.32k   
28_layer2.2.BatchNorm2d_bn1                 [15]  [1, 15, 16, 16]     30.0   
29_layer2.2.Conv2d_conv2          [15, 32, 3, 3]  [1, 32, 16, 16]    4.32k   
30_layer2.2.BatchNorm2d_bn2                 [32]  [1, 32, 16, 16]     64.0   
31_layer2.2.Sequential_shortcut                -  [1, 32, 16, 16]        -   
32_layer3.0.Conv2d_conv1          [32, 31, 3, 3]    [1, 31, 8, 8]   8.928k   
33_layer3.0.BatchNorm2d_bn1                 [31]    [1, 31, 8, 8]     62.0   
34_layer3.0.Conv2d_conv2          [31, 64, 3, 3]    [1, 64, 8, 8]  17.856k   
35_layer3.0.BatchNorm2d_bn2                 [64]    [1, 64, 8, 8]    128.0   
36_layer3.0.LambdaLayer_shortcut               -    [1, 64, 8, 8]        -   
37_layer3.1.Conv2d_conv1          [64, 31, 3, 3]    [1, 31, 8, 8]  17.856k   
38_layer3.1.BatchNorm2d_bn1                 [31]    [1, 31, 8, 8]     62.0   
39_layer3.1.Conv2d_conv2          [31, 64, 3, 3]    [1, 64, 8, 8]  17.856k   
40_layer3.1.BatchNorm2d_bn2                 [64]    [1, 64, 8, 8]    128.0   
41_layer3.1.Sequential_shortcut                -    [1, 64, 8, 8]        -   
42_layer3.2.Conv2d_conv1          [64, 31, 3, 3]    [1, 31, 8, 8]  17.856k   
43_layer3.2.BatchNorm2d_bn1                 [31]    [1, 31, 8, 8]     62.0   
44_layer3.2.Conv2d_conv2          [31, 64, 3, 3]    [1, 64, 8, 8]  17.856k   
45_layer3.2.BatchNorm2d_bn2                 [64]    [1, 64, 8, 8]    128.0   
46_layer3.2.Sequential_shortcut                -    [1, 64, 8, 8]        -   
47_linear                              [64, 100]         [1, 100]     6.5k   

                                  Mult-Adds  
Layer                                        
0_conv1                            442.368k  
1_bn1                                  16.0  
2_layer1.0.Conv2d_conv1           1.032192M  
3_layer1.0.BatchNorm2d_bn1              7.0  
4_layer1.0.Conv2d_conv2           1.032192M  
5_layer1.0.BatchNorm2d_bn2             16.0  
6_layer1.0.Sequential_shortcut            -  
…
